seminar4/workshop_12_march/cifar_net.pth (torch_old, 249582 bytes, 10 tensors)

conv1.weight f4 [6, 3, 5, 5]
0	0xbdcd4bbe	-0.10024212
1	0x3efe9bf4	0.49728358
2	0xbf0c9d61	-0.5492764
3	0x3db7e7fb	0.08979794
4	0x3e17d6f4	0.14828092
5	0x3e1e09d8	0.15433443
6	0x3f447d28	0.76753473
7	0xbfa97a56	-1.3240459
8	0x3e1cd936	0.15317234
9	0x3e8e022f	0.2773604
10	0x3e29c416	0.16578707
11	0x3ea392ab	0.31947836
12	0xbf96f47f	-1.1793364
13	0x3eab55e9	0.33463982
14	0x3ee5e927	0.44904444
15	0x3d6d780a	0.057975806
16	0xbda9f658	-0.082989395
17	0xbed5bd7e	-0.41746134
18	0x3e90c19d	0.28272715
19	0x3e0f6825	0.14004572
20	0xbe5227e6	-0.20523033
21	0x3e1d84a1	0.15382625
22	0xbd603516	-0.054738127
23	0x3ea192da	0.3155735
24	0xbce155b6	-0.02750669
25	0x3e0a1e7c	0.13488191
26	0x3f0ec20e	0.55764854
27	0xbf57c747	-0.8428845
28	0xbd3c54d9	-0.045979355
29	0x3d988b73	0.07448473
30	0x3eec221d	0.46119776
31	0x3f079d10	0.52974033
32	0xbfbf4cc2	-1.49453
33	0x3d86cedd	0.06582425
34	0x3ee6f348	0.45107484
35	0x3edc2111	0.42993978
36	0x3ecb0bcf	0.39657447
37	0xbfa4da67	-1.2879151
38	0x3e983c10	0.29733324
39	0x3f0481c7	0.51760525
40	0x3ded6f12	0.115934506
41	0xbd5752a2	-0.05256904
42	0xbf37ea29	-0.71841675
43	0x3e43a00c	0.19104022
44	0x3d620e03	0.055189144
45	0xbd873168	-0.0660122
46	0xbc5fd0f9	-0.013660663
47	0xbe72d55c	-0.23714203
48	0x3e1349e3	0.14383654
49	0xbd8b3b6b	-0.067984425
50	0xbe183ee0	-0.14867735
51	0x3eba9a14	0.36445677
52	0xbefb1842	-0.49041945
53	0x3e7b56f0	0.24544883
54	0xbd740966	-0.059579276
55	0x3e398d91	0.1812041
56	0x3f2244dd	0.6338633
57	0xbf8f920d	-1.1216446
58	0x3e7cca82	0.24686626
59	0x3e84bd49	0.25925663
60	0x3e802ebf	0.25035664
61	0x3ebd1d1c	0.3693627
62	0xbf8447dc	-1.033443
63	0x3eb0ec93	0.34555492
64	0x3ebd4cb1	0.36972573
65	0xbd44eb3a	-0.048075892
66	0x3e7aa4e0	0.24476957
67	0xbeff838c	-0.4990505
68	0x3e8998e9	0.26874474
69	0xbd963aa8	-0.073354065
70	0xbd4df713	-0.050284456
71	0x3dc86718	0.097852886
72	0x3d276804	0.04087068
73	0x3e83879c	0.256894
74	0xbe636da1	-0.22209789
75	0xbd5994cb	-0.053120416
76	0x3d20a0a6	0.039215706
77	0xbcef3803	-0.029201513
78	0x3dd4e243	0.103947185
79	0x3e483061	0.19549705
80	0x3db3a78a	0.0877219
81	0xbddb3b91	-0.10704721
82	0xbe119eef	-0.14220785
83	0xbd73e341	-0.059542898
84	0x3e24fd99	0.16112365
85	0x3e1a32e5	0.15058477
86	0xbdb8c6ce	-0.09022294
87	0xbd89e090	-0.06732285
88	0xbea7eb5c	-0.32796752
89	0xbd743781	-0.059623245
90	0x3d75ed9c	0.060041055
91	0xbe4f43dd	-0.20240732
92	0xbe00c041	-0.12573339
93	0xbe921efd	-0.28539267
94	0xbe409cdb	-0.18809836
95	0x3d1d6c5a	0.03843341
96	0xbd127772	-0.035758443
97	0x3da980db	0.0827653
98	0x3dc69aff	0.09697532
99	0x3d5e47d5	0.054267723
100	0xbe234ebc	-0.15948004
101	0xbe266774	-0.16250402
102	0xbe975ba2	-0.29562098
103	0xbe97f8cf	-0.29682013
104	0xbc7486e5	-0.0149247395
105	0x3d1f0b9d	0.038829435
106	0xbd2ff235	-0.042955596
107	0xbe5710ee	-0.21002552
108	0xbec7fc6d	-0.39059773
109	0xbe73ed3f	-0.23820971
110	0x3e15c6a6	0.1462656
111	0xbd210d68	-0.039319426
112	0xbdf07c97	-0.117425136
113	0xbed8909c	-0.42297828
114	0xbeaf5009	-0.3424075
115	0x3da6b902	0.08140756
116	0xbdf51a8a	-0.119679525
117	0xbdf6ed3c	-0.120569676
118	0xbe33bf4f	-0.17553447
119	0xbee0c42d	-0.4389967
120	0xbd6920d9	-0.05691609
121	0xbdfac0cf	-0.122438066
122	0x3e363d01	0.17796709
123	0xbdb8053b	-0.08985373
124	0xbd505db4	-0.050870612
125	0x3c5dadb2	0.013530182
126	0x3ddf3968	0.10899621
127	0xbdcfff1d	-0.10156081
128	0xbc903942	-0.017605428
129	0x3dae83d3	0.08521237
130	0x3e1acb6f	0.15116666
131	0x3e2eac58	0.17057931
132	0xbde521f7	-0.11188119
133	0xbe59e01b	-0.21276896
134	0x3ca8dce4	0.020613141
135	0x3ee2b1d9	0.44276312
136	0x3e6121c9	0.21985544
137	0x3e38e618	0.18056524
138	0xbe24efd9	-0.1610712
139	0xbe570bd2	-0.21000603
140	0x3e17a151	0.14807631
141	0x3e4b1c3d	0.19834991
142	0x3d073474	0.033009008
143	0xbd647994	-0.05578001
144	0xbe30b587	-0.17256747
145	0x3e650b7b	0.2236766
146	0x3ea93f20	0.33055973
147	0x3ebd06a5	0.36919132
148	0x3e2afca3	0.16697936
149	0x3e9fe18d	0.3122677
150	0xbf257761	-0.6463528
151	0xbeca3c11	-0.39498952
152	0xbeae643d	-0.3406085
153	0xbe400855	-0.18753178
154	0xbe9f4ef3	-0.3111492
155	0xbe8463e9	-0.25857475
156	0xbdf4b490	-0.11948502
157	0x3dca896b	0.09889492
158	0x3e2d9e6c	0.16954964
159	0x3e766f07	0.24065791
160	0xbd813080	-0.06308079
161	0x3e40f153	0.18842058
162	0x3ee59a67	0.44844362
163	0x3f0431a1	0.5163823
164	0x3ed36afa	0.41292554
165	0x3d6da5d8	0.05801949
166	0x3ee4f98b	0.44721636
167	0x3f31c15e	0.6943568
168	0x3f0dd2e4	0.5539992
169	0x3ec0eb7b	0.37679657
170	0xbdd2694d	-0.10273991
171	0x3e646231	0.22303082
172	0x3e80139c	0.2501496
173	0x3ea058ad	0.31317654
174	0x3e3e83cc	0.18604964
175	0x3e7d78c9	0.24753107
176	0x3dc21ac9	0.09477765
177	0x3cba5362	0.022744838
178	0x3d698e42	0.057020433
179	0xbd7e4fc5	-0.062087793
180	0xbd15df97	-0.036590185
181	0xbda86b53	-0.082235955
182	0xbddb1a79	-0.10698409
183	0xbe2b2dd8	-0.16716707
184	0xbe4c180a	-0.19931045
185	0x3c7b880c	0.01535226
186	0xbe0721c8	-0.1319648
187	0xbe89dd17	-0.2692649
188	0xbe794d81	-0.24345972
189	0xbea11814	-0.31463683
190	0x3ccd86a5	0.025088618
191	0xbe670db0	-0.22563815
192	0xbe9a2c14	-0.30111754
193	0xbeaca77b	-0.33721527
194	0xbe84e2af	-0.25954196
195	0xbe153ca1	-0.1457391
196	0xbe4c1ec0	-0.19933605
197	0xbe141993	-0.14462881
198	0xbe343722	-0.17599156
199	0xbe8319f9	-0.25605753
200	0x3ed377eb	0.41302428
201	0x3ecf77f7	0.40521213
202	0x3e995272	0.29945713
203	0x3da858f7	0.08220094
204	0x3e4c4517	0.1994823
205	0x3eb31125	0.34974018
206	0x3e87abbb	0.26498207
207	0xbb6eb620	-0.0036424473
208	0xbda14cae	-0.078759536
209	0xbd437123	-0.047715317
210	0x3e489086	0.19586381
211	0xbdb07c1b	-0.08617421
212	0xbe8461cf	-0.25855872
213	0xbeb9465c	-0.36186492
214	0xbe1ddd72	-0.15416506
215	0x3c5f82fd	0.01364207
216	0xbe65e7c5	-0.22451694
217	0xbebd7ab4	-0.37007678
218	0xbe5c8fac	-0.21539181
219	0xbc1346b0	-0.008989021
220	0x3e62a226	0.22132167
221	0xbdbe5e84	-0.09295371
222	0xbe2ee3eb	-0.17079131
223	0xbe2e9695	-0.1704963
224	0x3dcc9f32	0.099913016
225	0xbdea1617	-0.114299946
226	0x3ce96e2e	0.02849492
227	0x3e4a8b09	0.197796
228	0x3ada7325	0.0016666396
229	0x3c2fa8c7	0.010721392
230	0x3e9a2d86	0.30112857
231	0x3f22bdb9	0.63570744
232	0x3f88c266	1.0684326
233	0x3f299271	0.66239077
234	0xbca0a9b7	-0.019612176
235	0xbe645f81	-0.22302057
236	0xbf0888a4	-0.533335
237	0xbf43f1e8	-0.76540995
238	0xbf0cd7fe	-0.5501708
239	0xbdf813b9	-0.12113137
240	0x3bcc3b53	0.006232658
241	0xbf116b67	-0.5680451
242	0xbf424a1b	-0.75894326
243	0xbf0c598d	-0.54824144
244	0x3e349eaa	0.1763865
245	0x3dc30cf7	0.09523957
246	0x3e081677	0.1328982
247	0x3eb95398	0.3619659
248	0x3e94fbb1	0.29098275
249	0xbdb1fa8f	-0.086903684
250	0xbd2a67e1	-0.041602973
251	0x3d7f6b52	0.062358208
252	0x3e3cf8f6	0.18454346
253	0x3dc9d2c0	0.098546505
254	0xbe278f96	-0.16363367
255	0x3e169c29	0.14708008

conv1.bias f4 [6]
0	0xbe90fb20	-0.28316593
1	0xbee01b8b	-0.43771014
2	0xbe9ea691	-0.30986455
3	0xbee0fc20	-0.43942356
4	0xbbb8ac97	-0.0056358087
5	0x3f0f44de	0.5596446

conv2.weight f4 [16, 6, 5, 5]
0	0x3e0d675b	0.13808958
1	0x3dd56e2e	0.10421406
2	0x3d7166c3	0.05893589
3	0x3ea6f3da	0.3260792
4	0xbdcf961f	-0.10136055
5	0xbc840d34	-0.016119577
6	0x3e2256fb	0.15853493
7	0xbe42fcb8	-0.19041717
8	0x3e7dcc0b	0.24784867
9	0x3e3df12e	0.18549034
10	0xbe4922d2	-0.19642189
11	0xbdbdf09b	-0.092744075
12	0xbe40d430	-0.18830943
13	0x3e07fabd	0.13279243
14	0x3e53390d	0.20627232
15	0xbe2a13ce	-0.16609117
16	0xbd9481f5	-0.0725135
17	0xbe36f744	-0.17867762
18	0x3e5aa351	0.21351363
19	0x3e74fe6a	0.23925176
20	0xbe62a636	-0.22133717
21	0xbe7a8979	-0.24466504
22	0xbda32267	-0.07965546
23	0xbe25cdec	-0.16191834
24	0x3d83ecce	0.06441651
25	0x3dbc2c6c	0.0918816
26	0xbda9c211	-0.08288968
27	0x3e9cb36b	0.30605635
28	0x3e9c0f7b	0.3048056
29	0xbe54775c	-0.20748657
30	0x3d954fa4	0.07290581
31	0xbc3407f8	-0.010988228
32	0x3dd0e812	0.10200514
33	0x3eba6525	0.36405292
34	0xbdb3d28e	-0.087803945
35	0x3cc2f898	0.02380018
36	0xbd05320e	-0.03251844
37	0xbe4030a4	-0.18768555
38	0x3e30b520	0.17256594
39	0x3e5b3ee8	0.21410716
40	0xbdc40be8	-0.095725834
41	0xbe403177	-0.1876887
42	0xbdad680b	-0.0846711
43	0xbe5318cf	-0.20614932
44	0x3e0c9d66	0.13731918
45	0xbe333e8e	-0.17504331
46	0xbe3814e0	-0.17976713
47	0xbd73bdb8	-0.0595071
48	0xbe756a6d	-0.2396638
49	0xbcd62aa4	-0.02614338
50	0xbda9b446	-0.082863376
51	0x3c8601ba	0.016358245
52	0x3d8a3f49	0.06750352
53	0x3cdd3808	0.027004257
54	0x3e22e8cc	0.15909117
55	0xbbaf229d	-0.0053447024
56	0x3b540b44	0.0032355348
57	0x3decdbc2	0.11565353
58	0x3ce9e0f2	0.028549645
59	0xbd7d71c0	-0.06187606
60	0xbddb3602	-0.107036605
61	0x3ccb79af	0.024838297
62	0x3d69a0fd	0.057038296
63	0xbbd99170	-0.006639652
64	0x3dafec0b	0.085899435
65	0xbcebf43d	-0.028802985
66	0xbe028614	-0.12746459
67	0xbd8a7bb3	-0.06761875
68	0xbd65ff94	-0.05615194
69	0xbd4ad1dc	-0.049516544
70	0xbcb7ba5a	-0.022427727
71	0xbe0d0d0d	-0.1377451
72	0xbc5bc45f	-0.013413518
73	0xbd69cd21	-0.05708039
74	0xbd93623d	-0.07196472
75	0xbe15e8fe	-0.1463966
76	0x3d710d25	0.058850426
77	0xbd9e9a3a	-0.0774426
78	0xbe025058	-0.12725961
79	0xbe0cb851	-0.13742186
80	0xbe313d11	-0.17308451
81	0x3b8022ad	0.0039103837
82	0xbde6cc4b	-0.112694345
83	0xbdc82675	-0.0977296
84	0xbcfd3fb6	-0.030914169
85	0xbe87d984	-0.2653314
86	0xbe2d29c0	-0.16910458
87	0xbe328db0	-0.17436862
88	0xbe998776	-0.2998616
89	0xbe338960	-0.17532873
90	0xbe84e0c4	-0.25952733
91	0xbe6a0b58	-0.2285589
92	0xbe563072	-0.20916918
93	0xbead4599	-0.3384216
94	0xbe9e5194	-0.30921614
95	0xbe333878	-0.1750201
96	0xbde3f79e	-0.111312136
97	0xbd8d1deb	-0.06890472
98	0xbe8b9782	-0.2726403
99	0xbec5fc90	-0.38669252
100	0xbd9a9c18	-0.07549304
101	0x3dba8eb3	0.09109249
102	0xbd382893	-0.04496057
103	0x3d592d5e	0.05302178
104	0x3e8f47f0	0.2798457
105	0xbd8b1881	-0.06791783
106	0x3de10209	0.10986716
107	0xbdb69efc	-0.089170426
108	0xbea09199	-0.31361082
109	0x3daddfea	0.08489974
110	0xbe0025cf	-0.12514423
111	0x3cc1214e	0.023575451
112	0x3b221835	0.0024733667
113	0xbe316750	-0.17324567
114	0xbde650f3	-0.112459086
115	0xbe765ba6	-0.24058399
116	0x3df1b8ef	0.118028514
117	0x3e0f76e2	0.14010194
118	0xbdab77a7	-0.08372431
119	0xbe646037	-0.22302328
120	0xbd9ee142	-0.07757808
121	0xbd05d722	-0.03267587
122	0x3d0fc997	0.03510436
123	0xbca6907d	-0.02033257
124	0xbe87c197	-0.26514885
125	0xbe81a61f	-0.25322053
126	0xbe639166	-0.22223434
127	0xbd8b42d2	-0.06799854
128	0xbbb48061	-0.005508468
129	0x3dade648	0.08491188
130	0x3d471a86	0.04860928
131	0xbdbfdcae	-0.09368263
132	0x3cfe7bb9	0.031064855
133	0xbd6a61fa	-0.057222344
134	0x3d56e699	0.05246601
135	0xbc6bce9e	-0.014392523
136	0xbb18563e	-0.0023244764
137	0xbd15cbdd	-0.036571372
138	0xbce62619	-0.028094338
139	0x3cc66f02	0.024222855
140	0xbd480462	-0.048832305
141	0x3d084737	0.03327104
142	0xbb7ec634	-0.0038875462
143	0x3ce59f06	0.02802993
144	0xbd4669ff	-0.04844093
145	0xbdf64371	-0.12024582
146	0xbd670a58	-0.05640635
147	0xbd63e6a9	-0.055639897
148	0xbd2033df	-0.039111968
149	0xbe08cadd	-0.13358636
150	0xbd2e7f99	-0.042602155
151	0xbc09a0f4	-0.008400191
152	0x3c0a7481	0.008450628
153	0x3e1a90a6	0.15094241
154	0x3ae1a14b	0.0017214207
155	0x3be569e2	0.0070011476
156	0x3e50c385	0.20387085
157	0x3db87954	0.090075165
158	0x3d8782ce	0.06616746
159	0xbe8e203b	-0.27758965
160	0xbcb893b7	-0.022531373
161	0x3d36e857	0.04465517
162	0xbd7b150e	-0.061299376
163	0xbe026748	-0.12734711
164	0x3ceaea14	0.02867607
165	0xbc092e9b	-0.008372928
166	0x3b05ac5d	0.0020396926
167	0xbe19fe89	-0.15038504
168	0xbd9c5ce0	-0.07634902
169	0x3da21c60	0.07915568
170	0xbe055a25	-0.13022669
171	0xbe34781a	-0.1762394
172	0xbdb37652	-0.08762802
173	0x3e3c32c5	0.18378742
174	0x3e2cfa59	0.16892375
175	0xbdbf62b0	-0.09344995
176	0x3ce58d8e	0.0280216
177	0xbdc28e16	-0.09499757
178	0xbe17a558	-0.14809167
179	0xbdf6c150	-0.1204859
180	0x3cf0bfdc	0.02938836
181	0x3d8daa29	0.06917221
182	0xbe225065	-0.1585098
183	0xbe8394f8	-0.25699592
184	0xbddd5ef5	-0.10809127
185	0x3dec77ae	0.115462646
186	0x3d65981e	0.056053273
187	0xbe55bd92	-0.20873097
188	0xbe8d7ae2	-0.27632815
189	0x3d31b811	0.04338843
190	0x3dce1495	0.100625195
191	0xbd0821cf	-0.033235367
192	0xbe4c1fee	-0.19934055
193	0xbe3f90a6	-0.18707523
194	0x3dcec65c	0.10096428
195	0x3de1bb6a	0.110220745
196	0xbdf75fb0	-0.12078798
197	0xbd4808cf	-0.048836526
198	0xbd36e1b9	-0.04464886
199	0x3e563d16	0.2092174
200	0x3d310714	0.04321964
201	0xbd8ebd3b	-0.069696866
202	0xbb217f89	-0.0024642667
203	0x3da5bf98	0.08093184
204	0x3e533fb3	0.20629768
205	0x3b301dc8	0.002687322
206	0xbd77d385	-0.060504455
207	0xbdaef8ba	-0.085435346
208	0xbd04f877	-0.032463517
209	0x3e2dc4ac	0.16969556
210	0xbc896281	-0.016770603
211	0xbe4b22e1	-0.19837524
212	0xbe3cf451	-0.18452574
213	0x3c28ef3b	0.010310943
214	0x3e44abb4	0.19206125
215	0xbe1e0801	-0.15432741
216	0xbe48eeda	-0.19622365
217	0xbe0130f2	-0.12616327
218	0x3d617d2d	0.055051018
219	0x3e15331f	0.14570282
220	0xbafaa8ca	-0.0019123789
221	0xbe2acb55	-0.16679128
222	0xbda134f8	-0.07871431
223	0x3d6dcec0	0.0580585
224	0x3e4a7f23	0.19775061
225	0xbd85a157	-0.06524914
226	0xbe1cd42a	-0.15315309
227	0xbd8b0c0e	-0.067894086
228	0xbdadc614	-0.08485046
229	0xbeb4e2d1	-0.35329297
230	0xbd9fddd9	-0.07805986
231	0xbda49ad3	-0.08037343
232	0xbe5b56d1	-0.21419837
233	0xbedcd18d	-0.43128625
234	0xbe7109b2	-0.23538855
235	0x3d2294f9	0.039692853
236	0xbe5e024a	-0.2168056
237	0xbeed65f8	-0.46366858
238	0xbeb7f2b0	-0.35927343
239	0xbe7390f0	-0.23785758
240	0x3cafe696	0.021472257
241	0xbe9caa58	-0.30598712
242	0xbea379fc	-0.31929004
243	0xbecc1dba	-0.3986643
244	0xbe846eeb	-0.25865874
245	0xbe228150	-0.15869641
246	0xbdbf7578	-0.09348577
247	0xbdf92000	-0.12164307
248	0xbda0bc3f	-0.07848405
249	0xbd82c492	-0.06385149
250	0x3deeea85	0.11665825
251	0x3e383543	0.17989068
252	0xbe158bf2	-0.14604166
253	0x3e37236d	0.17884608
254	0x3eb81f05	0.35961166
255	0xbd593b9d	-0.053035367

conv2.bias f4 [16]
0	0x3f9c0262	1.2188227
1	0x3f5700ba	0.83985484
2	0xbdfa4ae0	-0.122213125
3	0x3ee7d021	0.45275977
4	0xbefd9d1c	-0.49533927
5	0xbeec8d7a	-0.46201688
6	0x3d687494	0.056751803
7	0xbfeba83a	-1.8410714
8	0xbf3fd7f2	-0.7493888
9	0x3f562d88	0.83663225
10	0xbf50e838	-0.8160434
11	0x3f4acecb	0.7922179
12	0x3dfe2059	0.124085136
13	0x3eed18e3	0.4630805
14	0x3fa4be6e	1.2870615
15	0xbe967e1d	-0.29393092

fc1.weight f4 [120, 400]
0	0xbd2f244a	-0.042759217
1	0x3c8168b6	0.015797
2	0x3d1ae706	0.037817977
3	0xbac58bcb	-0.0015071569
4	0x3d67c23a	0.056581713
5	0x3d0c8b8f	0.03431278
6	0xbd34248c	-0.043980166
7	0x3d0ee13d	0.034882773
8	0xbd1c91b7	-0.038224902
9	0x3c2ef91a	0.010679508
10	0x3b977415	0.0046219924
11	0x3c390d8c	0.011294734
12	0x3cc95a1d	0.024579102
13	0x3d464ef2	0.048415132
14	0xbb2f6967	-0.0026765706
15	0xbcd945e4	-0.026522584
16	0xbd0e4ac5	-0.034739275
17	0xbce6bb8a	-0.028165597
18	0xbc013bb8	-0.007887773
19	0x3b525025	0.0032091227
20	0x3d4f95ec	0.050680086
21	0xbd1e5794	-0.03865774
22	0xbd119755	-0.035544712
23	0x3c94ee0e	0.01817992
24	0x3cac0eab	0.021003088
25	0xbd1780da	-0.036988117
26	0xbd211952	-0.039330788
27	0xbca7a9f8	-0.02046679
28	0xbcfab8cf	-0.030605702
29	0xbd131e03	-0.035917293
30	0x3d33aa89	0.043863807
31	0xbd5f27a6	-0.05448117
32	0xbd39bc9c	-0.045345888
33	0xbc9dc2f7	-0.019258006
34	0x3bf1ca62	0.0073788622
35	0x3c808851	0.01569
36	0xbd10954d	-0.035298634
37	0x3c9fd787	0.019511951
38	0x3c3a2b41	0.011362852
39	0xbd086f29	-0.033309136
40	0x3c4eaf2e	0.012615008
41	0xbcd93f58	-0.026519462
42	0x3d11d6ca	0.03560523
43	0xbc9ba8fa	-0.019001473
44	0xbc8988b8	-0.016788825
45	0x3ba46b50	0.0050176755
46	0xbc5dd3bb	-0.01353925
47	0xba3bc96c	-0.0007163498
48	0xbb8d359d	-0.0043093697
49	0xbcd146c1	-0.025546433
50	0xbc6a98e4	-0.0143186785
51	0x3d21ef2a	0.039534725
52	0xbd56488a	-0.052315272
53	0x3c7d708e	0.01546873
54	0xbd076756	-0.033057533
55	0x3d278a54	0.040903404
56	0xbd4591ca	-0.04823474
57	0x3c2024f4	0.009774435
58	0x3ccaedd1	0.024771603
59	0xbc9f87de	-0.019473966
60	0xbcbc7f92	-0.023010049
61	0xbc824a1c	-0.015904479
62	0x3d3554cf	0.044270333
63	0xbd1b827a	-0.03796623
64	0xbd3e79cc	-0.046502873
65	0xbcac802d	-0.021057213
66	0x3b5dfa94	0.003387128
67	0x3b96d3af	0.0046028714
68	0xbc67c1e4	-0.014145348
69	0x3d054be2	0.03254307
70	0x3d2e77de	0.042594783
71	0x3bb44210	0.0055010393
72	0x3cd7d73a	0.026347745
73	0xbcb9b00c	-0.022666954
74	0xbc8b75e7	-0.017023994
75	0xbd2ff186	-0.042954944
76	0xbcb96273	-0.022629952
77	0x3d0b5ca4	0.034023896
78	0xbc6cb277	-0.014446846
79	0xbd042c41	-0.032268766
80	0xbd43bcf6	-0.04778763
81	0x3c63db0e	0.013907207
82	0xbc62f3c5	-0.0138520645
83	0xbd491c9d	-0.049099553
84	0x3cc0dc6a	0.023542602
85	0xbd4ac52e	-0.04950445
86	0xbc851c99	-0.016248988
87	0xbd526c2c	-0.051372692
88	0x3befacad	0.0073142857
89	0xbcf1a667	-0.029498292
90	0x3d0468ad	0.03232639
91	0x3ce8b68c	0.028407358
92	0xbce58324	-0.028016634
93	0x3cc909d4	0.02454082
94	0x3d58f380	0.052966595
95	0xbbf77163	-0.0075513585
96	0xbb31794a	-0.002708035
97	0x3bbba6f6	0.0057266904
98	0x3d198b0e	0.03748613
99	0xbb2f42b3	-0.0026742637
100	0x3c83fadd	0.016110832
101	0x3c5514bd	0.013005433
102	0xbbf8d1ea	-0.007593383
103	0xbd2cb264	-0.042162314
104	0xbca03e4b	-0.019560954
105	0x3bfba053	0.0076790242
106	0xbd3e094d	-0.04639559
107	0xbccf9d3c	-0.02534353
108	0xbc0f712e	-0.0087550115
109	0x3d2ea1be	0.042634718
110	0xbd0ecbb1	-0.034862224
111	0xbd1a10a9	-0.037613545
112	0x3a4a55fe	0.00077185023
113	0xb9a9b311	-0.00032367607
114	0x3ca48c7f	0.020086525
115	0x3d318b2a	0.043345608
116	0x3ce103c4	0.027467616
117	0x3d1ae4b2	0.037815757
118	0x3c2b7e66	0.010467147
119	0xbc75e543	-0.015008274
120	0xbca87ae0	-0.020566404
121	0xbcdc2c7b	-0.026876679
122	0xbc4bc5f0	-0.012437329
123	0xbd1ab558	-0.0377706
124	0x3d3a6ca7	0.045513775
125	0xbceb6b8c	-0.028737806
126	0x39e2841f	0.00043204517
127	0x3a3bbecc	0.0007161915
128	0xbcf232b8	-0.0295652
129	0x3d1c98df	0.038231727
130	0x3d243564	0.04008998
131	0x3d20bf2b	0.039244812
132	0xbc6b3f3f	-0.014358341
133	0x3c45a13f	0.01206237
134	0xbce1106f	-0.027473656
135	0x3c1823b0	0.009285852
136	0xbcb93b2e	-0.022611227
137	0x3d006bf6	0.03135296
138	0x3cbf6f39	0.023368465
139	0xbd18f070	-0.037338674
140	0x3d287745	0.04112937
141	0xbc732d7a	-0.014842385
142	0x3d24cb31	0.04023284
143	0xbd14665b	-0.036230426
144	0x3d01ae7c	0.031660542
145	0x3b31f163	0.0027151934
146	0x3c22572c	0.009908479
147	0xbd417b80	-0.04723692
148	0xbd3ab646	-0.045583986
149	0x3cdd97f1	0.02704999
150	0xbcad877a	-0.021182764
151	0xbd2be3c5	-0.041965265
152	0xba6ab2a1	-0.00089530094
153	0x3cdc8b29	0.026921825
154	0xbd131ba7	-0.035915043
155	0xbd01e19f	-0.03170931
156	0xbd3ccc14	-0.04609306
157	0xbd19d3fa	-0.037555672
158	0xbc639e4b	-0.01389272
159	0xbc951ab7	-0.018201215
160	0xbd0d326a	-0.034471907
161	0x3d4f7e7c	0.050657734
162	0x3d1ce229	0.03830162
163	0xbc6044c4	-0.01368827
164	0xbce9f937	-0.028561218
165	0x3cb77c28	0.02239807
166	0x3d763b52	0.060115166
167	0xbbf2ebe1	-0.007413373
168	0xbca260d8	-0.01982157
169	0x3d2dd562	0.042439826
170	0xbbfb6627	-0.0076720896
171	0x3d863e20	0.06554818
172	0x3d11d841	0.035606626
173	0xbbc3f400	-0.005980015
174	0x3ac8c09a	0.0015316189
175	0x3d0565e7	0.032567885
176	0x3b640530	0.003479313
177	0x3d36ff80	0.044677258
178	0xbcdfcf9e	-0.02732068
179	0xbc4ec4f1	-0.012620197
180	0x3d19ebc5	0.037578363
181	0xbcef2844	-0.029194005
182	0xbd45bfb1	-0.048278514
183	0xbc253c29	-0.010085144
184	0xbccf5550	-0.025309235
185	0xbcdb69d8	-0.026783869
186	0x3b873ce6	0.0041271327
187	0x3c49b01d	0.012310055
188	0xbc2ee1f2	-0.010673987
189	0xbbb33f93	-0.005470225
190	0xbd3738d5	-0.044731934
191	0x3d1846be	0.03717684
192	0xbd198047	-0.03747585
193	0x3be8e97c	0.0071079116
194	0xbcecc6a4	-0.028903313
195	0xbd3436e8	-0.043997675
196	0xbd2860c5	-0.04110791
197	0xbcd68ef3	-0.02619121
198	0xbd517e31	-0.051145736
199	0x3be82433	0.0070843934
200	0xbd370307	-0.04468062
201	0xbb323afd	-0.0027195804
202	0xbc8d95c4	-0.017283328
203	0xbce2ff86	-0.027709734
204	0xbbe0e657	-0.006863396
205	0x3d1973f9	0.037464116
206	0x3d707edb	0.05871473
207	0x3d8111d4	0.063022286
208	0xbb48a88d	-0.0030618042
209	0x3cad9207	0.021187795
210	0x3d4d65c6	0.050145887
211	0xbcef9ace	-0.029248621
212	0x3cc8ceef	0.024512736
213	0x3c88654e	0.016649868
214	0x3d4673ae	0.048450164
215	0xbc4fadd4	-0.012675721
216	0xbcfedd0a	-0.031111259
217	0xbc52a951	-0.012857751
218	0xbc8eebcf	-0.017446427
219	0xbd22a1d7	-0.039705124
220	0xbcd9924c	-0.026559018
221	0x3ccd3cf2	0.025053475
222	0xbd002d6b	-0.031293314
223	0x3c839d96	0.016066354
224	0xbd4935f9	-0.049123738
225	0x3ca9161c	0.020640425
226	0xbd624eda	-0.05525098
227	0xbc961b04	-0.018323429
228	0x3cc2799f	0.023739634
229	0xbd4f8815	-0.050666887
230	0xbd1b5dee	-0.037931375
231	0xbd3de181	-0.046357635
232	0xbc4e169c	-0.012578633
233	0x3c41bc26	0.011824643
234	0x3d1f149f	0.038838025
235	0xbc231654	-0.009954054
236	0x3d1cbe80	0.038267612
237	0xbcf3c747	-0.029758109
238	0x3c4774ee	0.012173874
239	0x3d1c44fe	0.038151734
240	0x3d4b6f6a	0.0496668
241	0x3c040631	0.008058117
242	0xbc15d93d	-0.009146032
243	0x3d3c42bb	0.045962077
244	0x3d6990f6	0.05702301
245	0xbc9f5f9e	-0.019454774
246	0x3ca5e334	0.02024994
247	0xbb94b863	-0.004538582
248	0xbbe0a56e	-0.0068556583
249	0xbc1dcda1	-0.009631545
250	0xbc9f9d2d	-0.019484127
251	0xbd5189ee	-0.05115693
252	0x3d2cf977	0.042230096
253	0xbc13d633	-0.009023237
254	0x3cc13862	0.023586456
255	0xbcb79fca	-0.02241506

fc1.bias f4 [120]
0	0xbd26b13f	-0.04069638
1	0xbdc4d4d2	-0.09610905
2	0x3e2ea2d9	0.17054309
3	0xbcde9424	-0.027170248
4	0x3d0ed092	0.034866877
5	0xbd2f8554	-0.04285176
6	0x3dfac898	0.122452915
7	0xbd1ea12e	-0.03872793
8	0x3e1d57fc	0.15365595
9	0xbd416669	-0.047216807
10	0xbd67c8b8	-0.056587905
11	0x3cc98f1e	0.024604376
12	0x3e7dd11b	0.24786799
13	0xbd1c78e4	-0.038201228
14	0xbc7d3a6c	-0.015455823
15	0x3eb0b5e7	0.3451378
16	0x3e211797	0.15731655
17	0x3c8b3788	0.016994253
18	0x3d64b73a	0.0558388
19	0xbce49862	-0.027904693
20	0xbeaada52	-0.3336969
21	0xbd937e1e	-0.07201789
22	0x3c908984	0.017643698
23	0x3d6ef680	0.05834055
24	0x3c821fc2	0.015884284
25	0xbd868881	-0.06569005
26	0xbd155bcb	-0.036464494
27	0xbded307b	-0.115815125
28	0x3e6f38cc	0.2336151
29	0x3e4a1e39	0.19738092
30	0xbe811132	-0.2520843
31	0xbe6f9f1f	-0.23400544
32	0x3e5648f6	0.2092627
33	0x3e5ed7f6	0.2176207
34	0x3e024bc8	0.12724221
35	0x3d0c31ff	0.034227367
36	0x3dda6ed3	0.10665669
37	0x3df19ba1	0.11797262
38	0x3ba1a784	0.0049332995
39	0xbd5f43b5	-0.05450793
40	0x3d8cfe2a	0.068844154
41	0xbd1fbe5f	-0.03899991
42	0xbc190f14	-0.009341974
43	0xbd8afaa6	-0.06786089
44	0xbe27ab4f	-0.16373943
45	0x3d682220	0.05667317
46	0xbd82ea91	-0.06392396
47	0xbe4b0b78	-0.19828594
48	0x3de97839	0.11399884
49	0x3e8076ae	0.25090545
50	0x3e827b20	0.25484562
51	0xbbe22987	-0.006901923
52	0xbb2ff281	-0.0026847424
53	0xbd4aadf8	-0.049482316
54	0x3dbf2286	0.09332757
55	0xbd4a6fe3	-0.04942311
56	0x3c315a43	0.010824743
57	0x3ccfe7e3	0.025379127
58	0xbbce8b3d	-0.0063032196
59	0x3d7a9efc	0.061186776
60	0xbb9b2c1a	-0.004735482
61	0x3c79369c	0.015210774
62	0x3d1b7e42	0.037962206
63	0xbd022fdf	-0.031783935
64	0xbcd25e25	-0.025679657
65	0xbe17e452	-0.14833191
66	0xbd556226	-0.052095555
67	0x3c166dd7	0.009181461
68	0xbc6d5295	-0.014485021
69	0x3cef0519	0.029177235
70	0x3dba889d	0.09108088
71	0x3df184cd	0.11792908
72	0x3d4e3b08	0.050349265
73	0xbcc4515f	-0.023964582
74	0xbdc1df23	-0.09466388
75	0xbd76108b	-0.06007437
76	0xbcdb77f7	-0.026790602
77	0x3e1f894d	0.1557972
78	0x3dffda84	0.124928504
79	0xbd2395c1	-0.03993774
80	0x3d4cfde4	0.050046816
81	0x3dac081e	0.08399986
82	0x3d76c58d	0.060246993
83	0xbb1f852c	-0.0024340851
84	0xbd6fbb70	-0.058528364
85	0x3e25d5c4	0.16194826
86	0x3e258ff1	0.1616819
87	0xbe6ab1f0	-0.2291944
88	0x3cb0cd74	0.021582343
89	0xbc69d0e8	-0.014270999
90	0x3d8371af	0.06418168
91	0x3d3f5854	0.046715096
92	0x3dc23c93	0.0948421
93	0xbd74f3a2	-0.05980266
94	0xbd19fc5d	-0.037594188
95	0xbd14bedc	-0.03631483
96	0xbda2e2e4	-0.07953432
97	0x3cc7a02e	0.024368372
98	0x3e282b6a	0.16422811
99	0x3d142fe9	0.036178503
100	0x3d6d0622	0.057867177
101	0x3d16559f	0.03670275
102	0x3da8036b	0.08203777
103	0xbcba4282	-0.022736792
104	0xbc8bddbe	-0.017073508
105	0x3d888c8b	0.066674314
106	0xbc9df363	-0.019281095
107	0xbc514108	-0.012771852
108	0x3c13971c	0.009008195
109	0x3e418234	0.18897325
110	0x3d252364	0.040316954
111	0x3e8be44d	0.27322617
112	0x3dc2e6fc	0.09516713
113	0x3d6f2bef	0.058391508
114	0xbcbf921f	-0.023385106
115	0x3ea49088	0.3214152
116	0xbda9acdb	-0.08284923
117	0xbdfa6eb3	-0.122281455
118	0x3c96dfdc	0.018417291
119	0xbe41e964	-0.18936688

fc2.weight f4 [84, 120]
0	0xbcb469d9	-0.022023128
1	0x3d92fd6b	0.07177242
2	0x3e2711a3	0.16315322
3	0xbd4ac7d6	-0.049506985
4	0xbd80535f	-0.06265902
5	0x3c525aa3	0.012838992
6	0xbd22793e	-0.039666407
7	0xbc009f3c	-0.007850464
8	0xbe31dd83	-0.17369656
9	0xbd3f0d1d	-0.046643365
10	0x3dcb03b0	0.09912813
11	0x3d9bb998	0.076037586
12	0x3d3f19d5	0.046655495
13	0xbd321560	-0.043477416
14	0xbd0f1f03	-0.034941684
15	0xbbe10fe8	-0.0068683513
16	0xbd927f4b	-0.071531855
17	0xbdfae3bd	-0.12250469
18	0x3d4fb108	0.05070594
19	0xbd5577a8	-0.052116066
20	0x3dbdd9a9	0.09270031
21	0xbd35f33c	-0.04442142
22	0x3c74f723	0.0149515
23	0x3d9ce3df	0.076606505
24	0xbd5e0522	-0.054204114
25	0x3da2cb28	0.07948905
26	0xbcb2e8e6	-0.02183957
27	0xbdc49360	-0.09598422
28	0x3d1e3aa4	0.038630143
29	0x3c839875	0.016063908
30	0xbe6ca30d	-0.23109074
31	0xbdaf5b20	-0.085623026
32	0x3dbd907a	0.09256072
33	0xbc2aed74	-0.01043259
34	0x3db88203	0.09009173
35	0xbcd85c54	-0.026411213
36	0xbda67664	-0.0812805
37	0xbe1deaad	-0.15421553
38	0x3cb9eed4	0.02269689
39	0xbdd46186	-0.103701636
40	0x3db2cffa	0.08731075
41	0xbd7e7d29	-0.06213108
42	0x3e2c37db	0.16818182
43	0xbdabb560	-0.08384204
44	0x3d62702b	0.055282753
45	0x3b04370d	0.0020174414
46	0xbbe026df	-0.0068405713
47	0x3d861a6f	0.065480106
48	0xbdee799a	-0.116442874
49	0x3db46686	0.08808617
50	0x3c97d235	0.018532852
51	0x3d32bf93	0.04363973
52	0xbe2eb3ae	-0.1706073
53	0xbd8c3f1f	-0.06847977
54	0xbdcba03b	-0.09942671
55	0x3cd5d07e	0.026100393
56	0x3d5fabba	0.05460713
57	0xbade0f8a	-0.0016941887
58	0xbd874696	-0.0660526
59	0xbe12c4b6	-0.14332852
60	0x3c96a0c5	0.018387208
61	0x3dbe91c6	0.09305148
62	0xbb9b6e82	-0.004743398
63	0xbdc293a1	-0.09500814
64	0x3c6bd77b	0.014394636
65	0xbdcedee2	-0.10101105
66	0xbb0f99a0	-0.0021911636
67	0x3b9938dd	0.004675968
68	0xbb2d43fb	-0.0026438225
69	0xbc8710b9	-0.016487466
70	0xbd7b15cf	-0.061300095
71	0x3d258015	0.04040535
72	0xbd999d64	-0.07500723
73	0xbd62b3b6	-0.055347167
74	0xbd05d173	-0.03267045
75	0xbc3d34e3	-0.011548254
76	0x3d3427f5	0.04398342
77	0x3d22fd74	0.039792493
78	0x3de688eb	0.11256584
79	0xbdca6db4	-0.098842055
80	0xbde697f3	-0.11259451
81	0x3d5d91e5	0.054094214
82	0xbc29a78f	-0.0103548905
83	0x3d83b9c0	0.064319134
84	0xbc9f757f	-0.019465206
85	0xbd90a44e	-0.07062589
86	0xbddac2b6	-0.106816694
87	0xbe08b68e	-0.13350889
88	0xbd98c17c	-0.07458779
89	0x3da371bd	0.07980678
90	0x3db9f482	0.09079839
91	0xbd42827d	-0.047487725
92	0xbd875920	-0.06608796
93	0xbd3896b4	-0.045065597
94	0xbc979015	-0.01850132
95	0xbdba669b	-0.09101602
96	0x3db474df	0.08811354
97	0x3dd59e9b	0.10430642
98	0xbd600143	-0.054688703
99	0xbd8db705	-0.06919674
100	0x3db8bcb0	0.09020364
101	0xbdc04c13	-0.0938951
102	0xbdd9b9e9	-0.10631163
103	0xbd380e45	-0.044935483
104	0x3d4af865	0.049553294
105	0x3dd60180	0.10449505
106	0xbbec566d	-0.007212451
107	0x3d4585a3	0.04822315
108	0xbcb4b31f	-0.022058068
109	0x3c814f76	0.01578496
110	0xbcdc6e80	-0.02690816
111	0xbde40a60	-0.111347914
112	0x3d14c0c8	0.036316663
113	0x3d995cc2	0.07488395
114	0xbdae5b30	-0.085134864
115	0x3daa4bfb	0.083152734
116	0xbe01d583	-0.12679105
117	0xbcd06506	-0.025438797
118	0x3d529b2c	0.051417515
119	0xbcccc533	-0.024996376
120	0x3bc16e57	0.005903046
121	0xbbedcbfe	-0.007256984
122	0x3d7a8580	0.06116247
123	0xbddef7e8	-0.10887128
124	0xbe132df6	-0.14373001
125	0x3cd0bb7b	0.025480023
126	0xbd63d301	-0.05562115
127	0x3e076cbc	0.13225073
128	0xbd9f29a5	-0.07771615
129	0xbbabcde8	-0.005243052
130	0x3d856802	0.065139785
131	0xbd0ea9b3	-0.034829807
132	0x3d68d929	0.056847725
133	0x3dc3f441	0.09568072
134	0x3d9747ec	0.07386765
135	0xbc8108d0	-0.015751272
136	0xbc5bcd39	-0.013415628
137	0x3cc2e748	0.023791924
138	0xbd9475e3	-0.072490476
139	0xbd290c2e	-0.04127138
140	0x3dfd4477	0.12366574
141	0xbd0730c9	-0.03300551
142	0x3d30fef6	0.0432119
143	0x3e152b25	0.1456724
144	0xbd421868	-0.047386557
145	0xbcde9a58	-0.027173206
146	0x3cb22fb4	0.021751262
147	0xbd47ca8b	-0.048777144
148	0x3c74c74b	0.014940093
149	0xbcc69a08	-0.02424337
150	0xbe548e28	-0.20757353
151	0xbc089aaf	-0.008337661
152	0xbe15fb27	-0.14646588
153	0xbd379c4a	-0.044826783
154	0x3bec54ea	0.007212271
155	0xbd8b0537	-0.06788104
156	0xbd2da908	-0.04239753
157	0x3dd33ec4	0.10314706
158	0x3cc3449c	0.023836426
159	0x3d50ec28	0.051006466
160	0xbc9eb8c8	-0.01937522
161	0xbe1da027	-0.15393125
162	0xbd189e51	-0.037260357
163	0xbdba499a	-0.0909607
164	0x3d8f5c09	0.06999976
165	0x3d5b6e00	0.0535717
166	0xbd98e4a9	-0.074654885
167	0xbc4fddf1	-0.012687192
168	0xbcbcdaed	-0.02305361
169	0xbe590f2a	-0.21197191
170	0x3df49117	0.11941736
171	0x3e1d2445	0.15345867
172	0x3d35d7fc	0.044395432
173	0xbd86154b	-0.0654703
174	0xbda1b25f	-0.0789535
175	0xbb61db43	-0.0034462966
176	0x3d117734	0.03551407
177	0x3d8c898c	0.068621725
178	0x3c81bd36	0.015837293
179	0xbd20367c	-0.03911446
180	0x3c6312e9	0.013859489
181	0xbd1dccb3	-0.038525295
182	0x3d843596	0.06455533
183	0xbc23291f	-0.0099585345
184	0xbe201cf2	-0.15636042
185	0x3d819f18	0.06329173
186	0xbccc62b5	-0.02494941
187	0xbd1212f7	-0.035662618
188	0x3dc5d50e	0.096597776
189	0xbcef6f14	-0.02922777
190	0x3c23d0bc	0.009998497
191	0xbcc13fdc	-0.02359002
192	0x3daae655	0.083447136
193	0xbd1609d6	-0.036630474
194	0x3d09b420	0.033619046
195	0xbd01c43d	-0.031681288
196	0x3c7a22b7	0.015267066
197	0xbb8aa62e	-0.004231236
198	0xbd2193b9	-0.03944752
199	0xbda288f5	-0.07936279
200	0x3dc362c0	0.095403194
201	0xbd17135b	-0.036883693
202	0x3e2548fc	0.16141123
203	0xbd94c639	-0.072643705
204	0xbc0a7682	-0.008451106
205	0x3cd2308f	0.02565792
206	0x3d5ac595	0.053411085
207	0xbdbc9d6b	-0.092097126
208	0xbd85ac9a	-0.06527062
209	0x3d7fce88	0.062452823
210	0xbbecf0e7	-0.0072308662
211	0xbc536d94	-0.012904543
212	0x3d9f5019	0.07778949
213	0xbce586cb	-0.028018376
214	0x3e0853e3	0.1331325
215	0x3cf8cc83	0.030370956
216	0x3dc874e7	0.09787922
217	0x3dc5b5ef	0.09653842
218	0xbdcec513	-0.10096183
219	0x3d9cd40f	0.076576345
220	0x3d93aa8e	0.07210265
221	0x3c594411	0.013260857
222	0xbdc0b61b	-0.09409734
223	0xbd95da5e	-0.07317041
224	0xbccc968d	-0.024974132
225	0x3b944ed4	0.0045259986
226	0xbd8aab92	-0.06771006
227	0x3d9e2116	0.077211544
228	0xbdcdcb04	-0.10048488
229	0x3cafed27	0.021475388
230	0x3dc5a31c	0.09650251
231	0xbdb5de96	-0.088803455
232	0xbd0951d8	-0.033525318
233	0xbe375371	-0.17902924
234	0x3cc011b5	0.023445943
235	0xbddc0052	-0.107422486
236	0xbc74c3f1	-0.014939294
237	0xbdc8dd7e	-0.09807871
238	0x3df06fd6	0.11740081
239	0x3cffe226	0.031235766
240	0x3d5005cc	0.05078678
241	0xbb6fd129	-0.0036593175
242	0x3e0a277f	0.13491629
243	0xbe266784	-0.16250426
244	0x3bd20a7c	0.0064099412
245	0xbda2d29e	-0.07950328
246	0x3daaba54	0.083363205
247	0xbdd51f4e	-0.104063615
248	0xbd5e1d60	-0.054227233
249	0xbb78e850	-0.0037980266
250	0xbc2f3d95	-0.010695835
251	0xbc4973da	-0.012295688
252	0x3e608ee6	0.21929511
253	0xbdafdd9c	-0.085871905
254	0x3e45eeda	0.19329396
255	0x3c729b47	0.014807529

fc2.bias f4 [84]
0	0x3c941df4	0.018080689
1	0x3d0096e9	0.03139392
2	0x3f0400a8	0.515635
3	0x3dda6a4f	0.10664808
4	0xbcd937ca	-0.02651586
5	0x3e992023	0.2990733
6	0x3da1dee6	0.07903843
7	0x3e0ecd08	0.139454
8	0x3e8e1be7	0.27755663
9	0x3e5c73eb	0.21528594
10	0x3e2f5881	0.17123605
11	0x3dde0e4e	0.10842572
12	0x3b99b5a0	0.004690841
13	0x3e492638	0.19643486
14	0x3ecadb95	0.39620653
15	0xbdcd1f81	-0.100157745
16	0x3cb58639	0.022158729
17	0x3de8d03b	0.11367842
18	0x3d23601b	0.039886575
19	0x3e131715	0.14364274
20	0x3d7e1034	0.06202717
21	0xbd736d3b	-0.059430342
22	0xbd94c1bb	-0.07263514
23	0xbddd95bb	-0.108195744
24	0x3e8a54ad	0.27017727
25	0x3ef2e777	0.4744222
26	0x3d88a78d	0.06672583
27	0xbd22cd88	-0.03974679
28	0x3b904703	0.0044029965
29	0x3ea40abc	0.3203944
30	0xbd517996	-0.051141344
31	0x3ebd423d	0.36964598
32	0x3e5d9a2c	0.21640843
33	0x3e152828	0.145661
34	0x3e5b7210	0.2143023
35	0x3e2d159e	0.16902778
36	0xbd9c91e3	-0.07645013
37	0x3e573049	0.21014513
38	0x3de9d268	0.11417085
39	0xbcfcfa73	-0.030881142
40	0xbd90a67c	-0.070630044
41	0xbde89c51	-0.1135794
42	0x3d19d123	0.037552964
43	0x3e6f4dc4	0.23369509
44	0x3d98193f	0.0742669
45	0xbd2822f9	-0.041048978
46	0x3e76fe15	0.24120362
47	0x3e531e8e	0.20617124
48	0x3e1797d4	0.14804012
49	0x3ee2a965	0.44269863
50	0xbe3be158	-0.1834768
51	0xbd23df4b	-0.04000787
52	0x3c66201f	0.014045744
53	0x3d8a48b8	0.06752151
54	0x3e9f398d	0.31098595
55	0x3f00bb6f	0.50286
56	0x3cf2e926	0.02965219
57	0xbdd59c0b	-0.104301535
58	0x3d9039a2	0.070422426
59	0x3e06ef3b	0.13177197
60	0xbdd770dd	-0.10519574
61	0xbd27e80d	-0.040992785
62	0x3dc45291	0.09586061
63	0xbe449f81	-0.19201471
64	0x3ee77a28	0.45210385
65	0x3e238562	0.1596885
66	0x3d8a827a	0.06763168
67	0xbce1a6c8	-0.027545348
68	0xbd56538d	-0.052325774
69	0xbcb4190d	-0.021984601
70	0x3e3ae489	0.18251242
71	0x3db44385	0.08801941
72	0xbc546f7b	-0.012966032
73	0xbd001da0	-0.031278253
74	0xbd9e5582	-0.07731153
75	0x3d0aa879	0.033852074
76	0x3e99c03c	0.30029476
77	0xbd541c8f	-0.051785048
78	0x3c0a184c	0.008428644
79	0x3f5fc231	0.8740569
80	0xbdb6a01a	-0.08917256
81	0x3eb20e3b	0.34776482
82	0x3d83eef2	0.064420596
83	0x3d2c7fe9	0.042114172

fc3.weight f4 [10, 84]
0	0x3b6efdb3	0.0036467134
1	0x3dfea3f3	0.124336146
2	0x3da4a9ae	0.08040176
3	0xbe4783b6	-0.19483837
4	0xbd9334e9	-0.07187826
5	0x3d7f35e3	0.06230725
6	0xbca435ea	-0.02004524
7	0xbe10368a	-0.14083305
8	0x3e3c718d	0.18402691
9	0xbe1e776c	-0.15475243
10	0x3e47b35a	0.19502011
11	0x3e633805	0.22189339
12	0xbd80d21f	-0.062900774
13	0xbe66883f	-0.22512911
14	0x3df8ef80	0.12155056
15	0xbd81c654	-0.06336656
16	0x3c11c2dd	0.008896557
17	0x3d564a6d	0.05231707
18	0xbd8cef8c	-0.068816274
19	0xbe02862b	-0.12746494
20	0x3dead2ec	0.114660114
21	0x3e0de19e	0.13855597
22	0xbe1b302d	-0.15155096
23	0x3cc6fa6b	0.02428933
24	0x3d2b79da	0.041864254
25	0xbc88e63c	-0.016711347
26	0x3ddc95ab	0.107707344
27	0x3e395a07	0.18100749
28	0xbd32df54	-0.043670014
29	0xbe21de44	-0.15807444
30	0xbd83cf46	-0.06436019
31	0xbe2461d9	-0.16052951
32	0xbdf4fa52	-0.11961807
33	0xbe0aebfd	-0.13566585
34	0xbd6695ce	-0.05629521
35	0xbd8db6cc	-0.06919631
36	0x3e52b028	0.20575011
37	0x3dd72d0f	0.10506641
38	0xbd39678d	-0.04526477
39	0xbdcc21d3	-0.09967389
40	0xbcbab213	-0.02278999
41	0xbc0dee4c	-0.008662771
42	0xbdf27fc3	-0.11840775
43	0x3e2f91b4	0.17145425
44	0xbe283697	-0.16427074
45	0x3dafdeed	0.085874416
46	0x3daa0d4c	0.083033174
47	0x3e2f42bf	0.17115305
48	0xbd12ab92	-0.035808153
49	0xbcee6893	-0.0291026
50	0x3db96693	0.090527676
51	0x3db8ecda	0.09029551
52	0x3dfefa61	0.124501
53	0x3d6f8b3e	0.0584824
54	0xbe96ca71	-0.29451326
55	0xbe957458	-0.29190326
56	0x3e87ebd2	0.26547104
57	0xbc4ac3c2	-0.012375774
58	0xbd8d9a09	-0.069141455
59	0x3da99669	0.082806416
60	0xbd6a3386	-0.057178043
61	0xbd0e3f1c	-0.034728155
62	0x3e7171fc	0.23578638
63	0x3c98ab0b	0.018636247
64	0xbe46a7f3	-0.19400005
65	0xbce40bfd	-0.027837748
66	0x3e13f236	0.14447865
67	0xbd02eed8	-0.03196606
68	0x3e6b539b	0.22981112
69	0x3dd41afd	0.1035671
70	0x3e215cb3	0.15758018
71	0x3e6267c7	0.221099
72	0x3ccda04a	0.025100846
73	0x3e988e91	0.2979627
74	0x3e23e80d	0.16006489
75	0xbdadc1bc	-0.084842175
76	0xbeb2ef20	-0.34948063
77	0xbe0a1290	-0.13483644
78	0xbd8e8939	-0.06959767
79	0xbe9abc72	-0.30221897
80	0x3e9c2dcd	0.30503693
81	0x3e6f2445	0.2335368
82	0xbdc65be4	-0.096854955
83	0x3dec2e4a	0.115322664
84	0x3cb5e8e7	0.022205783
85	0xbd707857	-0.058708515
86	0xbd706367	-0.058688547
87	0x3e06742b	0.13130252
88	0x3dae5a8d	0.08513365
89	0x3e0c7f7e	0.1372051
90	0xbdf1b8fb	-0.1180286
91	0x3dbc7a9c	0.092030734
92	0x3e5cccc8	0.21562493
93	0xbde31ee8	-0.11089879
94	0xbe5d39f7	-0.21604143
95	0xbba44eec	-0.005014291
96	0x3e89062a	0.26762515
97	0x3da97af9	0.08275408
98	0xbeb57818	-0.35443187
99	0x3dea0108	0.11425978
100	0x3c8804aa	0.016603786
101	0x3c856d54	0.016287483
102	0x3d3ced59	0.04612479
103	0xbe1d890d	-0.15384312
104	0xbdcf1891	-0.101121075
105	0xbd834bd3	-0.06410947
106	0xbde723bc	-0.11286113
107	0x3d972be1	0.07381416
108	0x3e573b5c	0.21018738
109	0xbe84373e	-0.25823396
110	0xbd51b513	-0.051198076
111	0x3e9200ba	0.2851618
112	0xbe2c254b	-0.16811101
113	0x3e30597a	0.17221633
114	0x3dcb75b4	0.099345595
115	0xbd80d863	-0.062912725
116	0x3d8ad3d3	0.067786835
117	0xb8b6b6d0	-8.712488e-05
118	0xbe7d188d	-0.24716397
119	0x3e91cb24	0.28475296
120	0x3e510165	0.20410688
121	0x3e941f54	0.2893015
122	0x3e2209d9	0.15824069
123	0x3da45b11	0.08025182
124	0xbd00ed18	-0.03147611
125	0x3dca389d	0.098740794
126	0x3e9e6fbb	0.3094462
127	0x3d8e206c	0.06939778
128	0x3d8905c4	0.06690553
129	0xbc6b6192	-0.014366524
130	0xbdfde3ac	-0.123969406
131	0x3dbe8b03	0.09303858
132	0xbe1b94cd	-0.15193482
133	0x3bad8bbe	0.0052961996
134	0x3c3a3be0	0.011366814
135	0x3db43920	0.08799958
136	0x3d926b5d	0.07149384
137	0xbe876878	-0.2644689
138	0xbde48073	-0.11157312
139	0x3d931dce	0.07183419
140	0x3d2b402a	0.04180924
141	0x3db45f5f	0.08807253
142	0xbea19bd1	-0.3156419
143	0xbe7089fc	-0.23490137
144	0x3d65e78e	0.05612903
145	0x3d916e50	0.071011186
146	0xbdc11afc	-0.09428975
147	0x3e0ba153	0.13635759
148	0xbeaf3eb4	-0.34227526
149	0xbe72912e	-0.23688194
150	0x3e12cba7	0.143355
151	0xbd3bb28d	-0.045824576
152	0x3e06e6e7	0.1317402
153	0x3e8e2b8a	0.27767593
154	0x3df3a817	0.11897295
155	0xbdbe8ccf	-0.09304201
156	0xbdfd55b1	-0.1236986
157	0xbe81bc93	-0.25339183
158	0xbb055de9	-0.0020350164
159	0xbde454eb	-0.11149009
160	0x3d4c4690	0.04987198
161	0x3d0d8e9b	0.034559827
162	0xbd8eca5a	-0.06972189
163	0xbee4325f	-0.4456968
164	0xbda3fc05	-0.08007053
165	0xbe834f92	-0.25646645
166	0xbbb386d8	-0.005478721
167	0xbe81ce7c	-0.25352848
168	0x3db0cd1b	0.08632871
169	0x3d3f198c	0.046655223
170	0xbd986c27	-0.074425034
171	0x3dda2e69	0.10653383
172	0xbc038276	-0.00802671
173	0xbd998183	-0.074954055
174	0xbd6d4a5b	-0.05793224
175	0xbcebcd5b	-0.028784445
176	0xbdf3d21c	-0.119053096
177	0x3e242c70	0.16032577
178	0x3e945cc4	0.28977025
179	0xbe01c82f	-0.1267402
180	0xbdf98937	-0.12184375
181	0xbe282542	-0.16420463
182	0x3d2f4e92	0.04279954
183	0x3e21f1c7	0.15814887
184	0xbcf36f59	-0.02971618
185	0x3dd7b740	0.10532999
186	0x3d0a3734	0.033744052
187	0x3e459da0	0.1929841
188	0xbdb577c7	-0.08860736
189	0xbbf3985d	-0.0074339346
190	0x3e0a370e	0.13497564
191	0xbd31dba8	-0.04342237
192	0xbde81363	-0.11331823
193	0x3d0d7773	0.034537744
194	0x3b5a1a3e	0.0033279802
195	0xbe21981d	-0.15780683
196	0xbda329ad	-0.079669334
197	0xbdd56b74	-0.10420886
198	0x3e597038	0.21234214
199	0xbe46d8bf	-0.1941862
200	0xbe5193b5	-0.20466502
201	0x3e884aa3	0.26619443
202	0xbd5c486a	-0.053779997
203	0xbd304f6f	-0.043044504
204	0xbc6ec2f5	-0.014572849
205	0xbdd0916d	-0.10183988
206	0x3e3ae8c9	0.18252863
207	0xbe1ac4e6	-0.15114173
208	0xbd988422	-0.07447077
209	0x3d0a0f16	0.033705793
210	0x3df7aa39	0.12093014
211	0x3d9d3697	0.07676428
212	0x3d9cd664	0.07658079
213	0xbe0b9b08	-0.13633358
214	0x3c02ec9e	0.007990984
215	0xbe785656	-0.24251685
216	0x3d6c5283	0.057695877
217	0x3e3bdbeb	0.18345611
218	0x3e55bd2c	0.20872945
219	0xbdac5402	-0.08414461
220	0xbe24deac	-0.16100568
221	0x3d9a8f4d	0.07546864
222	0x3e9038b3	0.28168258
223	0x3e42d017	0.19024692
224	0x3e4cfc6c	0.20018166
225	0x3c51ac34	0.012797404
226	0x3e7aab2c	0.2447936
227	0x3cc408b7	0.023929937
228	0x3d6365d5	0.055517036
229	0x3da10f27	0.07864218
230	0x3dd10d30	0.102075934
231	0x3bb74165	0.0055925124
232	0xbd838554	-0.06421915
233	0x3e3fc14c	0.1872608
234	0xbd010f9b	-0.031509023
235	0x3d81560a	0.06315239
236	0x3d249b56	0.040187202
237	0xbd9bd313	-0.076086186
238	0x3d7112f7	0.058855977
239	0xbcbb81bc	-0.02288901
240	0xbd816c2a	-0.06319459
241	0x3db3647a	0.08759399
242	0x3d7d5005	0.06184389
243	0xbdb1a966	-0.08674888
244	0xbe3fa501	-0.18715288
245	0x3db24560	0.087046385
246	0xbd91b90f	-0.07115375
247	0x3e95d6e3	0.29265508
248	0x3e0c0dfd	0.13677211
249	0x3ec5f00f	0.38659713
250	0xbb368723	-0.0027851544
251	0x3e186b0b	0.14884584
252	0xbd4fb349	-0.05070809
253	0xbd6aea06	-0.05735209
254	0xbe1ba258	-0.15198648
255	0x3e16299c	0.1466431

fc3.bias f4 [10]
0	0xbe92e402	-0.2868958
1	0xbf26b162	-0.65114415
2	0xbe3b308a	-0.18280235
3	0x3efcbe4a	0.4936393
4	0x3f0857a5	0.53258735
5	0xbe1998c5	-0.14999683
6	0x3e6e89e2	0.23294786
7	0xbe0fa286	-0.14026842
8	0x3e598311	0.21241404
9	0xbe794d7e	-0.24345967
